chat_model.pth (torch, 6246 bytes, 6 tensors)

fc1.weight f4 [8, 99]
00000000: bd18 9c3e 2f3e 273e 5aaf f1be 627b 473f
00000010: b462 56be a7a6 2a3f 85dd 66be b15a 873e
00000020: ebfb 7c3e be42 b53e ae85 2cbf eb0c 373f
00000030: 201a bfbe 7bc1 11bf 616f 9a3e 0574 88be
00000040: a2dd 943e 6dd8 ed3e b803 2fbe c452 413f
00000050: 0720 853e 023b 033f 297a 633f 4aba b63e
00000060: c7a1 183f 7bd7 943e 76f9 66be 552e bf3e
00000070: 0e6c 0d3f 728c 5bbe 8527 e4be bb42 9abe
00000080: f009 a63e dfc4 2bbf 498a 8c3e 31d4 2bbf
00000090: d3cb 2bbf bda8 27bd bcc7 583e f1d4 1d3e
000000a0: b74b eb3e 02aa a73e c15e ab3e a115 40bd
000000b0: 4c77 923e 6a78 3fbe 0e2d b23e 5b4e b23e
000000c0: 5853 003f 105f a73e bcf1 a83e 9d0d 67be
000000d0: 7bb1 943e 7e7e 793e dd57 3dbf d553 9dbd
000000e0: 6241 8f3e e160 5e3f 796f 8e3f 193e 083f
000000f0: c436 0c3f 2353 463f 552a 833f e61c 0f3f
00000100: 91f3 b1be dc77 e9be 5aa1 9fbe 7324 1c3f
00000110: 8292 283f 8518 2cbf 38df 1fbf 02c6 cb3c
00000120: 671c 10be 6545 c43e 84fc 573f 62f7 2d3e
00000130: 6dfa 423f 5eb7 bf3e 5b58 eb3e 883a e6be
00000140: b768 f73e e6cf 223f 334f eb3e 140e 9ebd
00000150: 14c8 63be 8842 0e3f c564 9b3e 8262 0bbd
00000160: f4ea e73e 448d 91bd 642d ff3e e10f f63d
00000170: 8816 883d cbdd 4ebe bb12 b23e 677e 963d
00000180: 584c 113f d226 d93e afd9 6ebe ff97 48be
00000190: ee1c 973d 80ba 973e 38c7 8a3d 090e 903e
000001a0: 3bde 2b3e e14d 08be aaa1 c7bb a2de 3abe
000001b0: f6f0 29bd 70bb 4a3c 8461 adbe 1828 bebc
000001c0: ddde bf3d 9623 8cbe ada2 083f 1739 6bbd
000001d0: d10c af3d b0f7 963e b6d2 b5be 2fff ae3e
000001e0: f14c b73d 11c3 993e 85ff 423e d5e8 b8bc
000001f0: 9b45 af3e 7256 f4bc d843 833e 9613 9e3d
00000200: 11aa 993e f6d7 1ebe 2e58 0a3f e7ac a6be
00000210: 3219 b8be b204 68bd f890 bbbe 679a 87be
00000220: c85a 993e 7474 a2bb 8ae1 14be 3057 9d3e
00000230: 007d 7d3d b711 f8bd 0423 1b3f a359 55be
00000240: 94c6 023f d592 56be b842 94bd 088d 59bd
00000250: 71f5 41be 63e7 c33e ab5d a9bd 587f 9e3e
00000260: 9786 75be 50af 273c 4edd bf3c 72fd 9c3e
00000270: 4dc4 1fbe f688 f73e 34bc 6dbe d9dd 0ebe
00000280: 352a ba3e 22b8 adbe 4b8b 3f3e aa04 163f
00000290: 2575 de3e 1080 a33e 0f44 3b3f ffdc 23bf
000002a0: 31ce 363f 665d 423f 5841 323e b786 223e
000002b0: 760d 98be 2abf 683f 04b9 1abe a156 dfbe
000002c0: b809 44be bef4 9fbe 0563 853e 786d b3be
000002d0: 88ef ebbe b9bf 14be fc0a 993e 1903 3bbe
000002e0: 8ba6 b9be ac32 c13e 29dc e73d 74fb d13e
000002f0: 036a 453e 9376 8ebe b16b 083e c7c8 afbd
00000300: cea0 a33e b839 293e 7d9c 5fbe 6a71 503e
00000310: 5124 c03c cc14 b93e 0059 84be 32eb e6bd
00000320: fb6f c73d 520d 473e 0e36 a03e 4363 923e
00000330: 98c2 49be 3b31 643d cd22 cebe c279 ba3c
00000340: 4430 a4bd a631 d0be b5e6 1c3e c976 043e
00000350: 0062 81be d435 123e 87a2 8f3e 3bab 2a3e
00000360: 7b71 773e 83c4 99be e2c6 3f3e 6b38 7d3e
00000370: f4f1 803e f255 203e 288a f9bb ccf4 473d
00000380: 7ccc 49be 8de3 3b3e 24fb 01bf dc31 ee3e
00000390: 6cac a8be 5917 3e3e a7ed cfbe 07f7 fcbe
000003a0: 1079 99bc 52c8 06bf b7c1 06bf 7c0a 743e
000003b0: 25dd 5a3e 2c96 ebbd 7192 9c3e 9e80 943d
000003c0: 16d5 acbe b63f 263f 5aff be3e 494c b0bd
000003d0: dd67 45be 8bc3 16bd 7d8e 9fbe 8578 1b3e
000003e0: 9ec1 bc3e 51fc 3fbe 4c17 e53d d163 2d3f
000003f0: 4ca3 a7bc 171e a23e 211c 703e 9ea8 2dbe
0.30487624 0.16332315 -0.47204095 0.7792264 -0.2093609 0.6666054 -0.2254544 0.2643638
0.24705474 0.35402483 -0.6739148 0.71504086 -0.3732462 -0.5693585 0.301631 -0.26651016
0.29075342 0.46454182 -0.17091262 0.75516915 0.26000997 0.51261914 0.88858277 0.35689002
0.5962185 0.2907065 -0.225561 0.37340036 0.55243003 -0.21440294 -0.445614 -0.30129036
0.32429457 -0.67097276 0.27449253 -0.67120653 -0.67107886 -0.040932406 0.21169943 0.15413262
0.45956203 0.32746893 0.3347073 -0.046895627 0.2860664 -0.18698278 0.348 0.34825405
0.5012717 0.32689714 0.3299693 -0.22563787 0.29041657 0.24364659 -0.73962194 -0.07682005
0.2797957 0.86866575 1.1127769 0.53219754 0.54771066 0.77470607 1.0247294 0.5590347
-0.3475614 -0.45599258 -0.3117779 0.6099312 0.65848553 -0.67224914 -0.6244998 0.02487469
-0.14073335 0.38334194 0.84369683 0.169889 0.7616337 0.37444586 0.45965847 -0.4496653
0.4832208 0.6359848 0.45958862 -0.07717529 -0.22244292 0.5557027 0.3035032 -0.03402949
0.45296443 -0.071070224 0.49839318 0.120147474 0.066449225 -0.20201795 0.34779915 0.07348328
0.56757116 0.4241243 -0.23325227 -0.19589232 0.07378565 0.29634476 0.06776279 0.28135708
0.16783993 -0.13310958 -0.00609227 -0.1824899 -0.041489564 0.01237379 -0.3386346 -0.023212478
0.0936868 -0.273709 0.53373224 -0.057427492 0.085473664 0.29485846 -0.35512322 0.34179065
0.08950222 0.30031636 0.19042785 -0.02257196 0.34232792 -0.029826377 0.25637698 0.077185795
0.30012563 -0.1551207 0.540408 -0.3255379 -0.35956722 -0.056645103 -0.3663404 -0.26484987
0.29952073 -0.00495773 -0.14539161 0.3073058 0.061886787 -0.12112754 0.60600305 -0.20834975
0.51084256 -0.2095445 -0.07239288 -0.053113014 -0.18941285 0.38262472 -0.08269819 0.3095653
-0.23977123 0.010234669 0.023420956 0.30662113 -0.15602227 0.4834668 -0.23216325 -0.13951816
0.36360326 -0.33929545 0.1870548 0.58600867 0.4344875 0.3193364 0.73150724 -0.6400909
0.71408373 0.75923765 0.17407739 0.15871702 -0.2969777 0.90916693 -0.1510964 -0.4362078
-0.19144332 -0.3124141 0.26052108 -0.35044456 -0.46081185 -0.14526261 0.29891193 -0.182629
-0.36259875 0.37733972 0.11321289 0.41012156 0.19278722 -0.2782484 0.13322331 -0.08583217
0.31958622 0.16525924 -0.2183704 0.20355764 0.023454817 0.3614868 -0.25849152 -0.11275329
0.097381555 0.19438675 0.3129124 0.28591356 -0.19703138 0.055711012 -0.40260926 0.022763137
-0.080170184 -0.4066288 0.15322383 0.12935938 -0.2527008 0.14278346 0.28053686 0.16666882
0.24164383 -0.3003274 0.18728212 0.24728553 0.25184596 0.15657786 -0.0076153465 0.04881744
-0.19706911 0.18348522 -0.50773835 0.46522415 -0.32944047 0.18563594 -0.40611002 -0.49407217
-0.018734485 -0.52649415 -0.52639335 0.23832124 0.21373422 -0.115032524 0.30580476 0.07251094
-0.33756322 0.64940965 0.37304193 -0.086083 -0.19277902 -0.036807578 -0.31163397 0.15182693
0.36866468 -0.18748595 0.11186084 0.6773043 -0.020463608 0.31663582 0.2344823 -0.16958854

fc1.bias f4 [8]
00000000: 85c7 2b3f 1e7a 313f 2dc6 063f 4b5c db3e
00000010: b86f 503f 0667 823f 7ec8 1a3f faa7 8a3f
0.6710132 0.6932696 0.5264614 0.4284385 0.8142047 1.018769 0.60462177 1.0832512

fc2.weight f4 [8, 8]
00000000: 232d a13f 1d1b f53e 963e d93f 7557 d53f
00000010: 59bd 3b3f 6be0 a3bf 5d62 3b3e b135 18bf
00000020: 2323 b93e df09 11bf 72af b3bf a1af 14bf
00000030: bbd5 793f cbc9 963f 5ba5 d23f e677 cb3f
00000040: 11e7 3d3f d090 093f 5b83 813e 09d8 9abe
00000050: 44ca 313f b300 473d 1cef f7bf 06a9 803f
00000060: c142 3ebf 5b7a 123f ba5f a23f 951f 6d3f
00000070: 88bc f83e d1c2 c73e 1caa 81bf 393a 953f
00000080: 04c5 a43a 303d 8a3f aed8 2dbe f15c 803f
00000090: 2665 783f cace 94bf 1e42 06bf f1a2 b0bd
000000a0: 2ad3 bb3f d774 373f 580a e9bd 3310 fcbe
000000b0: a6ef f73e 8f3c 1e3f c90a 0b3f 5876 b4bf
000000c0: aaa5 1d3e b4db b5be 6f0c 6fbf a71e b63f
000000d0: b237 b83f b543 b7bf 38b7 443e e816 afbe
000000e0: 3c92 9bbf cbb8 d53f 9bd1 053f 377d 6a3e
000000f0: 4cbd 033f 3f23 9b3f 4432 33bf 7ce6 be3f
1.25919 0.47872248 1.6972225 1.6667315 0.73335797 -1.2802862 0.18299241 -0.59456927
0.3615962 -0.5665569 -1.4037917 -0.5808049 0.9759175 1.1780332 1.6456712 1.5895965
0.74180704 0.5373659 0.2529553 -0.30242947 0.6944926 0.04858465 -1.9369845 1.0051582
-0.7432061 0.5721795 1.2685463 0.92626315 0.48581338 0.3901582 -1.0130038 1.1658393
0.0012570922 1.0799923 -0.16977188 1.0028363 0.9702934 -1.1625607 -0.52444637 -0.086248286
1.4673817 0.7166266 -0.11378926 -0.4923111 0.48425025 0.61811155 0.5431333 -1.4098616
0.15395227 -0.35519183 -0.9337835 1.4228104 1.4391997 -1.4317538 0.19210517 -0.34197164
-1.2154002 1.6697019 0.5227296 0.22899328 0.5146072 1.2120131 -0.69998574 1.4914088

fc2.bias f4 [8]
00000000: aa41 cb3d d0ba 253f 2bde 013e 95c8 9b3d
00000010: 40fc 2fbe 886a 323e 3189 223e ec62 273f
0.09924634 0.6473818 0.12682407 0.07606617 -0.1718607 0.17423451 0.15872647 0.6538532

fc3.weight f4 [9, 8]
00000000: 85d4 ccbf bf7b 76be ff47 8a3f e7f9 013f
00000010: ac18 97bf c1dc 94bf 7303 26bf d455 343f
00000020: 70a4 2abf 6f7e 633f e1da 11c0 eada 21be
00000030: 896c 49bf c6e2 d9bf d026 f3be d5df 503f
00000040: e733 843f 6f8d a4bf d07a c4bf 7671 b53e
00000050: 4874 bdbf fdca 2e3d 9809 f3be 5f64 5ebf
00000060: 5d7d 5e3e 7574 8c3e 9a4c ffbc 927e a4bf
00000070: 4b42 a5bf 0952 603f 1f09 1abf 6d67 97bf
00000080: 5d2d c43d f69b 89be 9e5c 343f 3b94 1d3e
00000090: c17e df3e 85ac 9bbf 8042 553d dbe3 c2be
000000a0: 6f2b 633e 5e90 863e f483 3abf d4d2 86bf
000000b0: aed7 df3e ab51 6bbe d768 2a3f bbfc b2bf
000000c0: 3969 023e 6a88 62bf 330c 10bf a544 3e3f
000000d0: 1e56 863e a2fb aabf d42d 3abf 9f62 273f
000000e0: 7943 843e 5ce0 dcbf 9706 933e 6875 cfbe
000000f0: f21f 313f 5e7e de3e 99e9 183e 6bca 4cbe
00000100: 343a d5bf a9e7 833f 6e5d e6bf 9cb1 d6bf
00000110: 111a cabe ac4b 603f cb13 2abf 9c2d b8be
-1.6002356 -0.24070643 1.0803221 0.50771946 -1.1804404 -1.1629869 -0.64849013 0.70443463
-0.6665716 0.888648 -2.2789843 -0.15806165 -0.78681237 -1.7022331 -0.4749055 0.8159154
1.0328339 -1.2855662 -1.5349979 0.35438126 -1.4801111 0.042674053 -0.47468257 -0.86871904
0.2172751 0.274326 -0.031164456 -1.2851126 -1.2910856 0.87625176 -0.6017017 -1.1828438
0.09578965 -0.268768 0.7045382 0.15388577 0.43651393 -1.2162024 0.052065372 -0.38064465
0.22184537 0.26282018 -0.72857594 -1.053309 0.43719238 -0.22980373 0.6656622 -1.3983377
0.12735452 -0.884894 -0.56268615 0.74323493 0.26237577 -1.3358042 -0.7272618 0.6538486
0.25832728 -1.7255969 0.28715965 -0.4051926 0.6918937 0.43455786 0.1493286 -0.19999091
-1.6658387 1.0305072 -1.7997262 -1.6772952 -0.39473012 0.87615466 -0.6643645 -0.35972297

fc3.bias f4 [9]
00000000: ad5c 5e3e abd1 dd3e d1a9 1b3f 56db 66be
00000010: e1cf 02bf d392 4a3e f279 d4be 2f61 39bc
00000020: dc0f 903d
0.2171504 0.43324026 0.60805994 -0.22544608 -0.5109845 0.19782571 -0.41499287 -0.011314674
0.07034275
