chat_model.pth (torch, 7782 bytes, 6 tensors)

fc1.weight f4 [8, 141]
000000 1e fe 8c 3d f2 39 8b bd 70 ee df be c1 14 50 3f
       0.068844065 -0.067981616 -0.437366 0.8128167
000010 fc 4e cb 3e f7 66 5d 3e 9d 9d b3 bd 9f 4a 7a 3e
       0.39708698 0.21621309 -0.08770297 0.24442528
000020 80 99 8d bf 48 83 2a 3f ef 94 f1 3e ff 97 de 3e
       -1.106247 0.6660657 0.4718394 0.4347534
000030 4a cf 1e 3f 74 74 3b 3e 6b 21 2c 3f e2 bb 17 3f
       0.6203505 0.18306142 0.6723849 0.5927106
000040 81 5e 08 3f fe 42 74 3f 6a e3 17 3f 2b b7 2b 3f
       0.532692 0.9541472 0.5933138 0.6707637
000050 b7 0c 00 bf 17 12 15 3f bc b7 08 bf 70 be e2 be
       -0.500194 0.5823073 -0.53405356 -0.44285917
000060 17 d3 f7 3e 43 de b2 3e 80 2f db be c7 3f 04 ba
       0.48403236 0.34935197 -0.42809677 -0.0005044904
000070 b0 b9 97 be 0e 30 a5 be 57 e9 6c be e0 f1 fa be
       -0.29633856 -0.32263225 -0.23135887 -0.4901266
000080 12 ea 88 3e 6f bd f3 3e 5d bb 20 be f0 72 1a 3f
       0.2674108 0.47605464 -0.15696473 0.6033163
000090 9c bd 34 3f bf 0f d8 3d fc 9f 80 3e cd c6 c1 3d
       0.7060182 0.10549878 0.25122058 0.09461746
0000a0 fc 1f af 3f 5b 76 36 3f 84 92 6b 3d f7 23 13 bf
       1.3681636 0.71274346 0.057512775 -0.57476753
0000b0 9e 0e 39 3f 62 0f 12 bf 9d df 11 3e 1f 5b 97 3f
       0.7228793 -0.5705472 0.14245458 1.1824683
0000c0 c6 f7 05 bf 36 1f 9e 3e ec f9 a4 3f 84 6b d7 3e
       -0.523312 0.30883187 1.288877 0.42074215
0000d0 ac 9b a7 3f 3c ee c1 3f 38 5c 2f 3e 29 0f 23 3f
       1.3094382 1.5150828 0.17125022 0.6369501
0000e0 7d 33 55 3f a3 fc cf be 60 13 03 3e 62 80 15 be
       0.8328169 -0.40622434 0.1280036 -0.14599755
0000f0 5c 34 0c 3f 60 5c 41 bc 86 6d 4a 3d ed 13 b5 be
       0.54767394 -0.011801809 0.049420856 -0.35366765
000100 cd dd 8b be 8a e6 d6 be 32 b0 bf be 20 ae 41 3e
       -0.27317658 -0.41972762 -0.37439114 0.1891408
000110 ab 95 9d be 86 a2 9f be 33 ae 34 3d b8 da 0d 3f
       -0.3077825 -0.31178683 0.04411144 0.55411863
000120 b7 f5 3b 3d 90 19 d2 3e 49 9b b1 be 92 55 18 be
       0.04588863 0.41035128 -0.34688786 -0.14876392
000130 c1 6a 3f be dc 53 49 3f 21 34 a1 3e a4 32 c6 be
       -0.18693067 0.78643584 0.31485084 -0.3871051
000140 fa e3 27 3f 52 db 53 3f 79 fd bf be c2 39 31 3e
       0.6558224 0.8275653 -0.37498072 0.17307189
000150 5e 28 30 bd f9 86 2a 3f 34 64 5a 3e 46 2b 6f 3c
       -0.043007247 0.666122 0.21327287 0.01459772
000160 74 7a 0a 3f c4 e4 61 3f 53 35 3c 3f c6 05 8e bd
       0.540931 0.88239694 0.73518866 -0.06934695
000170 66 cc 8b 3e 01 4e e4 3e c9 4c 11 3e 0e b6 65 be
       0.2730438 0.44590762 0.14189447 -0.2243273
000180 62 24 57 bf 03 95 22 3f 4e 42 88 bf 32 bf 26 3f
       -0.8403989 0.63508624 -1.0645235 0.6513549
000190 55 38 67 bd c7 0a 54 3f 81 91 51 bf b8 ed 67 bf
       -0.056450207 0.82828945 -0.81862646 -0.90597105
0001a0 3e 3b 29 3f 70 bd 18 3f 84 25 94 be 9a 70 7b 3e
       0.6610602 0.5966406 -0.28934872 0.24554673
0001b0 34 e1 bd be a1 2e 4c bf e0 4b 5d 3f ae 88 7f 3f
       -0.3708588 -0.7975865 0.864439 0.9981793
0001c0 12 f2 07 3e 87 09 53 3f 4e 20 6d 3f 9c 23 5b 3f
       0.13275936 0.8243641 0.9262742 0.8560121
0001d0 39 21 ec be 0c 25 51 bf 7d 24 27 3f 43 18 b8 be
       -0.46119097 -0.81697154 0.6529005 -0.3595601
0001e0 07 95 e1 bd e2 e4 18 bf 8c 0e b2 3f 1c 20 49 3e
       -0.11014753 -0.5972425 1.3910689 0.19641155
0001f0 e8 54 81 3f f2 62 be be b7 ad 0b bf 40 0a 73 3f
       1.0104036 -0.37184864 -0.5456194 0.94937515
000200 e1 14 f4 3e 86 cb 27 bf 37 af 2a 3f 74 d4 01 3f
       0.4767218 -0.6554493 0.66673607 0.507148
000210 28 b3 8b 3e 84 81 9e be c8 7e 08 3f 0e 1c 52 be
       0.27285123 -0.30958188 0.5331845 -0.20518515
000220 3c e9 6e bf f7 82 f1 3e 0f 13 8b 3e b5 d4 22 bd
       -0.9332464 0.4717023 0.27162978 -0.039753634
000230 d7 73 07 3f 11 5a 24 bf 28 a3 7d bd 7c 6f 61 bd
       0.5291113 -0.6419993 -0.061923176 -0.05503796
000240 83 cc 39 3f c4 b3 94 3e ce 2f cb 3e 7e 57 08 bf
       0.72577685 0.290434 0.3968491 -0.532585
000250 33 8d 0f bd 1d f6 7c be d3 3a bd 3e 67 3c e7 3e
       -0.035046767 -0.2470326 0.36958942 0.4516327
000260 34 d7 7d 3e 15 af 94 be 90 df b6 3b 07 16 0e 3f
       0.24789125 -0.29039827 0.00558085 0.5550236
000270 5d d1 e9 be c1 54 da 3e f2 ef 2b 3f 66 b1 40 3e
       -0.45667544 0.42642787 0.67163 0.18817672
000280 7a f5 d8 3e f8 5f 86 be 8e 4c fe 3e 3a 04 20 3f
       0.42374784 -0.26245093 0.49667782 0.6250645
000290 3a 2e 6b 3b 1c 30 fe 3d 87 74 04 3e d2 1d 01 3f
       0.0035885707 0.1241152 0.12935077 0.5043613
0002a0 f7 54 c3 3d a4 e3 85 be 84 84 5c 3e 35 65 cc be
       0.0953769 -0.2615024 0.21534926 -0.39920965
0002b0 46 a0 80 be d7 cf 31 3e 3a 7d c3 3e 97 82 8f 3e
       -0.2512228 0.17364441 0.38181478 0.2802932
0002c0 df 7b 01 3f 28 61 84 be a5 08 03 be 66 bc d6 3e
       0.5057964 -0.25855374 -0.12796266 0.41940612
0002d0 6a 01 67 be 4b 39 8a 3f de 4b c1 3e 64 b9 8b 3e
       -0.22559133 1.0798734 0.37753195 0.2728988
0002e0 b1 98 18 3f 79 0f 3c bd be b1 1e 3f 3a 27 20 3d
       0.5960799 -0.045913193 0.61989963 0.03909991
0002f0 08 02 16 3f 29 34 05 3f 67 62 35 be 48 68 1e 3f
       0.5859685 0.52032715 -0.17713319 0.6187787
000300 ba b8 66 bd 41 d8 10 3f f6 55 23 3f bc 5a 67 3e
       -0.056328513 0.5657998 0.6380304 0.22593206
000310 1c 5d 4b bd 22 57 92 3e 03 d1 33 3f 73 06 da 3e
       -0.049649343 0.28582102 0.702408 0.42583045
000320 05 fd 79 3d 33 64 9c be 45 61 2f bb 95 31 63 bd
       0.061032314 -0.30545196 -0.0026760858 -0.055467207
000330 a3 29 90 bd b0 64 55 3f 7b 63 1a 3b 75 24 7e 3f
       -0.070391916 0.8335676 0.002355783 0.9927438
000340 38 7a ef bc fe e4 4d 3f 6b 80 c7 bd 8c 4e 31 bf
       -0.029233083 0.8042754 -0.09741291 -0.6926048
000350 f1 d7 cb 3e 3f 5f 38 be a8 31 b7 be b6 9c 44 3f
       0.39813188 -0.18005084 -0.35780072 0.7680162
000360 40 21 55 3e 90 58 3e be 5a 0c c9 3e 3e 86 a2 be
       0.20813465 -0.18588471 0.39267236 -0.31743044
000370 03 a7 c5 3e 46 ca d5 3e c9 fd 12 3f 8e 04 1d 3d
       0.38603982 0.41755885 0.57418495 0.03833442
000380 11 46 18 3f 75 2d 81 3e 77 16 96 3e 41 e4 6c bf
       0.5948191 0.25229993 0.29314014 -0.9253579
000390 31 9c 24 3f 37 35 08 3f c3 1b a4 be 69 e9 d5 be
       0.6430083 0.532062 -0.3205243 -0.4177964
0003a0 98 b0 23 be 2b 35 22 3e 83 95 cc 3e d4 6e 12 3c
       -0.15985334 0.15840594 0.39957818 0.008937556
0003b0 cc b2 13 be 2f 94 ea be d8 d6 d2 3e 46 5f 09 bf
       -0.14423674 -0.4581618 0.41179538 -0.53661
0003c0 eb dd eb 3e 1e 5b 25 3e 07 85 2a 3e 0d 51 d8 be
       0.46067747 0.1614804 0.16652308 -0.42249337
0003d0 50 8f 7d bf 03 63 8c 3e 35 9e f1 3e 69 8a 49 bf
       -0.990468 0.2741929 0.47191015 -0.7872682
0003e0 6f 42 25 bf c6 77 4b be d9 de 22 3f 3c 1a c7 3d
       -0.64554495 -0.19869909 0.6362129 0.09721801
0003f0 e4 fb 5c 3e 58 e6 52 bf f9 e2 2d 3f 4c fe 16 3f
       0.21580464 -0.82382727 0.6792446 0.58981776

fc1.bias f4 [8]
000000 fc 90 4d 3f 16 7a 25 3f 47 bb 36 3f 2e 16 57 3f
       0.80299354 0.64639413 0.7137951 0.8401822
000010 8a 13 5f 3f 29 7d 38 3f 49 69 97 3f b4 bf 24 3f
       0.8713919 0.7206598 1.1829005 0.64355016

fc2.weight f4 [8, 8]
000000 23 67 08 3c 35 c7 07 be d8 82 c2 bd 11 89 5d 3d
       0.008325371 -0.13259585 -0.09497613 0.054085795
000010 82 d7 b2 3d 9f f0 fa bd 6f 8d c4 be bd a9 9a be
       0.08732511 -0.12252926 -0.38389155 -0.30207625
000020 3b 27 3b be 3a 42 90 bf cf 74 24 40 36 28 73 3f
       -0.18276684 -1.1270211 2.5696294 0.9498323
000030 79 09 fd bd 3f 03 67 3f 6c f0 e4 3f 46 33 27 40
       -0.123553224 0.9023933 1.7885871 2.6125045
000040 c3 2d 84 3f 76 ab 64 3e 87 d4 2e bf 28 b6 a8 3d
       1.0326465 0.22331032 -0.6829304 0.082378685
000050 f1 a3 6d 3f fb e7 05 bf 9d 4c aa 3f 3d 1a bb bf
       0.9282828 -0.523071 1.330463 -1.4617382
000060 96 fb 15 40 44 c0 55 3f 62 05 6b 3e 84 b5 0c 40
       2.3434806 0.834965 0.22951272 2.1985788
000070 a6 ef 91 be 78 25 46 3e 5b 75 b5 bf 04 3e 16 be
       -0.2850315 0.1935023 -1.4176439 -0.14672095
000080 da 9c dc be d6 6d 09 40 54 20 19 bc 29 74 8d 3f
       -0.43088418 2.1473289 -0.0093460865 1.1051074
000090 0d 24 a7 bf a8 f4 42 bf bc c6 e3 3f 5c 92 d9 bd
       -1.3057877 -0.76154566 1.7795024 -0.10623619
0000a0 6d 76 77 3d a8 08 23 be 86 5d 4e 3e 0b 97 8f be
       0.060415674 -0.15921271 0.20152864 -0.28044924
0000b0 a1 64 7e 3d 18 c3 b5 be 11 98 14 be 7a 6a bd bd
       0.062107686 -0.35500407 -0.14511134 -0.092488244
0000c0 06 8b 79 be cb 8a d9 bf d3 6f 97 3f 37 1e 8f be
       -0.2436944 -1.6995481 1.1831001 -0.2795274
0000d0 7a 1b d3 3f 92 36 f4 be 5d a6 f2 3e ab fe f9 3e
       1.649276 -0.47697884 0.4739255 0.4882711
0000e0 0c ae bb 3e 16 81 d6 be 06 1c 9c bf a1 a6 6c 3e
       0.36656225 -0.4189536 -1.2196052 0.23110439
0000f0 4c 21 03 40 bb 06 13 40 36 9d 27 3d 37 7b a2 bf
       2.0489073 2.2972858 0.040921412 -1.2693852

fc2.bias f4 [8]
000000 89 ed 9f bd 0f 7d 03 be 47 49 8e 3f 11 b3 ea 3e
       -0.07808978 -0.12840675 1.1116112 0.45839742
000010 4f 63 5c 3f 8e 94 7a be 2a 72 39 3f 06 66 5e 3f
       0.8608903 -0.24470732 0.72439826 0.86874425

fc3.weight f4 [15, 8]
000000 67 b9 99 3d 47 77 1b 3f c3 cb 0e c0 82 ee a3 bf
       0.07506066 0.6072888 -2.2311866 -1.2807162
000010 53 8a 0a c0 41 29 13 be b2 c0 4b 3f 7d a0 d0 bf
       -2.1646926 -0.14371206 0.79590905 -1.6298977
000020 08 7a cc 3d 73 58 73 bf ec cd 81 3e 57 8a ba bf
       0.09984213 -0.9505684 0.25352418 -1.4573468
000030 2e ef c8 bf 69 35 37 bc 7e 0b 3e 3c e0 7e 94 3f
       -1.5697992 -0.011182168 0.01159942 1.1601219
000040 4e c9 3e 3e 8d 08 e6 bf aa 21 00 3f 3d 16 66 3f
       0.18631479 -1.797136 0.5005137 0.8987768
000050 65 25 5d 3f aa 1a ec bd 23 07 2d c0 d5 80 01 bf
       0.86385185 -0.11528523 -2.7035606 -0.5058721
000060 1b 38 c4 be f1 04 b9 3e e4 a4 9b bf 31 1b 17 c0
       -0.38324055 0.36136582 -1.2159696 -2.3610346
000070 18 89 2c 3f 0c 0b 1d be 50 19 36 bf de b7 b6 bf
       0.6739669 -0.15336245 -0.71132374 -1.4274862
000080 de 62 81 be ac d9 69 bf 3b 4f 9f 3f 7e 0f da bf
       -0.25270742 -0.91347766 1.2446054 -1.7035978
000090 ee ab 9a 3f 23 cf be 3d ae 37 4d bf 05 95 04 bf
       1.2083719 0.09316852 -0.80163085 -0.51789886
0000a0 e4 47 e0 bc c6 4c c8 bf 49 48 a1 3f dd 44 12 3f
       -0.02737803 -1.5648429 1.2600185 0.5713633
0000b0 f3 a3 d3 bf 19 aa d7 3c 6f 4e 00 c0 8c ac 2f 3f
       -1.6534408 0.026326226 -2.0047872 0.6862266
0000c0 c8 e0 db bd fd 8b b0 bd 85 73 2b be 0f e3 cd 3d
       -0.10736233 -0.08620451 -0.16743286 0.100530736
0000d0 84 b2 de 3d 5e a4 ee bd 8d b3 2a c0 ae e4 0c 3e
       0.10873893 -0.11652444 -2.667209 0.1375911
0000e0 b2 02 cf 3d 52 19 68 be 22 97 ea be c7 a5 39 3f
       0.10107936 -0.22665909 -0.4581843 0.7251858
0000f0 f3 14 8a 3e 74 3a b6 be 57 c6 b1 bf f0 e8 ed bf
       0.26969108 -0.3559147 -1.3888654 -1.8586712
000100 e2 eb d4 be a2 8b 2d 3e 4d b0 42 c0 42 18 3b be
       -0.41586214 0.16947797 -3.0420105 -0.18270972
000110 af 68 62 3f 93 7f 52 3e 5b fc 07 c0 41 30 a0 bf
       0.88440984 0.20556478 -2.1247776 -1.2514726
000120 cf ac 6b be 76 c9 9a 3e bb 01 d8 bb 8c 6b 8b be
       -0.2301514 0.30231827 -0.006592003 -0.2723049
000130 b0 bb b1 be 9a f0 60 3e bb 86 9a 3e f6 2c 16 c0
       -0.34713507 0.21966782 0.30180916 -2.3464942
000140 34 78 cb be ee fd 82 bd cf 2a 91 bf 50 cc 54 3f
       -0.39740145 -0.063960895 -1.1341189 0.83124256
000150 0b fb bc bf 9d 79 9f be 98 54 22 c0 17 b7 9a 3e
       -1.4764112 -0.3114747 -2.5364132 0.3021781
000160 11 64 62 be 78 f2 a2 be f3 9c 0a be 03 05 9a 3e
       -0.22108485 -0.31825614 -0.13536434 0.3008195
000170 48 0a c2 bf 36 9c 68 3e 56 b2 f5 bd bd 35 f4 3e
       -1.5159388 0.2271584 -0.119969055 0.4769725
000180 8a c4 01 bd 8b 04 48 3f b1 8f 37 c0 25 b1 9f bf
       -0.031681575 0.7813193 -2.8681452 -1.2475935
000190 48 ee a9 be 0f a4 83 3e 54 15 cf be 32 1f bc 3c
       -0.33189607 0.25711104 -0.4044596 0.022964094
0001a0 d5 df c6 3c 4e 2c 39 3e 53 16 16 be a8 59 a8 bf
       0.024276653 0.18083307 -0.14656954 -1.3152361
0001b0 22 c9 9e be 9b f9 99 be a0 ac bd be 14 d9 02 3f
       -0.31012827 -0.30073246 -0.37045765 0.51112485
0001c0 b7 d4 de bd 11 e5 cc 3e 1c 7f 33 c0 72 c3 22 3f
       -0.10880416 0.40018514 -2.8046331 0.63579476
0001d0 cd dc 0c c0 94 76 16 3e 26 e5 13 bb b9 3d 4b bf
       -2.2009766 0.14693671 -0.0022567003 -0.79391056

fc3.bias f4 [15]
000000 a4 d4 cf 3d 26 8f f7 3d 9d 70 10 3e 40 77 65 3e
       0.1014798 0.1208785 0.14105459 0.22408772
000010 e4 b1 4f 3f 5e 06 da 3e 79 4f 1c bf 39 43 84 be
       0.81130815 0.42582983 -0.61058766 -0.25832537
000020 0a 87 5b be a9 f7 2f 3e fc 50 f1 be 24 40 10 bf
       -0.21438232 0.17184319 -0.471321 -0.5634787
000030 cf bd 07 bf 34 46 43 3e 7b 7e a1 bd
       -0.53024 0.19069749 -0.07885452
