data.pth (torch, 7466 bytes, 6 tensors)

l1.weight f4 [8, 98]
00000000: 562c a33d 1032 c93b cc6c 46bd 6887 88bc
00000010: 28d3 0b3c 7c31 65bd 8a54 82bd b8cf 85bd
00000020: 545c c8bd d88f 40bc dc0c cd3d 603a adbb
00000030: fc1f c4bc 8435 aebd 12b7 4abd 34a7 0bbd
00000040: a0c4 37bc 582b 31bc 5ed7 a23d e496 8f3d
00000050: 3008 f0bc 28c2 983d 2383 b0bd aece 96bd
00000060: 3101 c3bd 1448 5f3d c40d c3bc 41af bfbd
00000070: 392d b5bd b888 8c3d c26a aabd 940a 8a3c
00000080: 00ff acbb 7207 a53d f086 393c 00bb 6abb
00000090: 5c00 543d f841 27bd e078 5abb 2873 10bd
000000a0: c01a e73c 26d5 07bd 6caf 423d 277a bfbd
000000b0: 71ff 4ebd 707f 8c3d 9664 a33d 0047 e639
000000c0: 0870 853c 10da 0ebc 0813 e33c f881 6b3d
000000d0: fabd af3d 35f8 5fbd f4cd 07bd 7e7d b8bd
000000e0: 1c1c 8dbd 60b8 743d 665c 97bd 6a77 983d
000000f0: ec0c bc3c e0b1 42bd 7105 bebd 37c3 5fbd
00000100: 9e0f c93d 284f 19bd ec7d 4a3d df41 c3bd
00000110: 98d2 41bc 25f0 38bd 74a9 b03d f086 91bb
00000120: 2002 dc3c 307e debb f1dc a5bd bc68 8e3d
00000130: 1084 873b 9c20 1d3d b008 82bc c0d0 39bc
00000140: 5286 8cbd 8e46 5bbd f4bb 0f3d 8455 9ebd
00000150: 180e 95bd c08f 833c 3841 91bd 58d0 0d3d
00000160: dc58 a93d d41c 383d 96f1 993d 1e25 833d
00000170: 44ed 86bd ecb6 94bd 72ef 97bd 208d 003d
00000180: 72c5 ca3d 1e73 8cbd 34f5 c13d 667d b8bd
00000190: a8f9 353c be49 a23d 64ad 94bc 438b 6bbd
000001a0: 3ec1 85bd 6cd1 433d 46d5 a9bd 5440 723d
000001b0: e2c7 8d3d 34d7 6a3d 68dc b83d dbf9 c4bd
000001c0: 1d0b 23bd 287f 83bd 1cba 763d ac73 98bc
000001d0: 800d 45ba 619c 26bd 7c38 653d ee8b 12bd
000001e0: ba14 a4bd c6a1 933d f0ff 71bc 0401 50bd
000001f0: bce7 a7bd 9ce8 863d e81a 3d3c 802b 26ba
00000200: e4fb 81bc 1ef5 c13d 184b 203d 36bc a2bd
00000210: cbcc b7bd 2c04 b5bc 6c94 af3c 501d c03d
00000220: 1eae 8c3d 40bb b9bc 7192 b8bd 04d0 b6bc
00000230: 60c5 c63c 24b5 f4bc e07e c33c 78db 29bd
00000240: 62a2 85bd b01d b7bd 94bf b53c ec8c 533d
00000250: 5845 c53c e037 9cbd 345b 903d f80a 8d3c
00000260: 1036 9fbb a4f0 a63d 74da 523d 8031 943d
00000270: 30ae babc fb93 9ebd 382a cb3d d0b2 c23d
00000280: 1090 f0bb e963 33bd 8a5b 01bd 70eb 3c3c
00000290: 56e0 b3bd 5882 af3c 102a a4bc d3a7 bfbd
000002a0: 0044 04b9 e60d c93d 7bfd c0bd 182e adbd
000002b0: 33ea 4abd 780e 663d 1eff 8a3d b87a 2abd
000002c0: 860d 9dbd 58a5 c13d 785e 5b3c bcad 253d
000002d0: 9483 8f3d 6a7c 843d 3465 c23d 0864 45bc
000002e0: 2882 01bd c9a1 24bd 33ff 2bbd a8ae 083d
000002f0: 5035 e93c 6135 51bd 0e68 c3bd 9854 563c
00000300: 7cfa b3bd b45e 213d 57ec 5ebd 442c d8bc
00000310: 582e ab3c aa93 8ebd ac8c 3a3d 767c 1fbd
00000320: ac42 123d c0d2 993c 0888 d6bc 3036 9d3d
00000330: 2cb1 183d b87a 7f3d dca1 a73c c870 3d3d
00000340: 507e 6b3d c47b babd bc42 3bbd a8ab 383c
00000350: e07f d53c 1d48 41bd 08bb 633d 2261 80bd
00000360: 20c5 e33c 4cbd a0bd 2687 b23d ff38 3dbd
00000370: e80b a3bc 106b f73b 92f5 bebd 0c6e 8dbc
00000380: a4cb b73c dc1f 263d 7aed 5fbd 749b 373d
00000390: 62f6 3fbd 1228 a3bd 2c46 363d c0a5 b93a
000003a0: f8b7 763d 7658 c83d d4dd 003d 3006 8fbb
000003b0: 3e12 943d 566a 893d 78b2 a4bd 04b2 783d
000003c0: c004 6e3c 480e 7ebc 1ced 1cbd a43f b53d
000003d0: 70f8 593d 206f 7b3b 000a db3c 50f1 a83d
000003e0: 3062 f4bb 0936 40bd a0ee c0bc e80f f83c
000003f0: 24ab 91bc 8b52 b1bd a098 8dbb be02 cabd
0.07967441 0.006140001 -0.0484436 -0.01666613 0.00853423 -0.055955395 -0.06363781 -0.0653376
-0.09783235 -0.011753045 0.10012218 -0.0052865 -0.023941033 -0.08506301 -0.049490996 -0.034095004
-0.011216313 -0.010813557 0.07951234 0.07011202 -0.02930078 0.07458907 -0.08618762 -0.0736364
-0.095217116 0.0545121 -0.023810275 -0.09359599 -0.08846516 0.068620145 -0.08321144 0.016850747
-0.005279422 0.08058061 0.0113236755 -0.0035817027 0.051758155 -0.040834397 -0.0033336207 -0.03526607
0.028210998 -0.03316226 0.047530577 -0.093494706 -0.050536577 0.06860244 0.079781696 0.00043921918
0.016288772 -0.008718982 0.027719036 0.057496995 0.08581157 -0.054680068 -0.033155397 -0.09008311
-0.06890127 0.059746146 -0.073906705 0.074446514 0.02295538 -0.047532916 -0.092783816 -0.05462953
0.09817432 -0.037429005 0.049436495 -0.09534048 -0.011829995 -0.045150895 0.086260706 -0.0044411346
0.026856482 -0.006789945 -0.08098782 0.0695357 0.004135616 0.038361177 -0.015873283 -0.011341274
-0.06861557 -0.053534083 0.035091355 -0.077311546 -0.07278079 0.016059756 -0.070925176 0.03462252
0.08268902 0.044949368 0.07516782 0.06403564 -0.065882236 -0.07261452 -0.074187174 0.031384587
0.09900941 -0.06857894 0.09470597 -0.09008293 0.011106886 0.079242215 -0.018149085 -0.057505857
-0.06530999 0.047807142 -0.08292632 0.05914338 0.0692289 0.05733414 0.09026414 -0.09617969
-0.03980552 -0.064207375 0.06023608 -0.018609844 -0.0007516965 -0.04067648 0.05596207 -0.03577798
-0.08011766 0.0720859 -0.014770493 -0.05078222 -0.08198497 0.065873355 0.0115420595 -0.00063388795
-0.015867181 0.094705805 0.039134115 -0.07946055 -0.08974608 -0.022096716 0.021433078 0.09380591
0.06869148 -0.022672296 -0.090123065 -0.022315986 0.024264038 -0.02987153 0.02386421 -0.041469067
-0.06525113 -0.08941209 0.022186078 0.051648065 0.024080917 -0.07627845 0.070486456 0.017217144
-0.0048587397 0.08151367 0.051477864 0.07236004 -0.022788137 -0.07743069 0.09920162 0.09506762
-0.0073413923 -0.043796454 -0.03158144 0.011530742 -0.08783023 0.021424457 -0.020039588 -0.09358182
-0.00012613833 0.09817104 -0.094233476 -0.08456057 -0.049539756 0.056166142 0.06786941 -0.04162094
-0.07668595 0.09455365 0.013389222 0.04044889 0.070075184 0.064690426 0.09491959 -0.012047775
-0.031618267 -0.040193353 -0.041991424 0.03336969 0.028467804 -0.051076297 -0.09541331 0.013081692
-0.087880105 0.039396957 -0.05442461 -0.026388295 0.020896122 -0.069617584 0.04554431 -0.038937055
0.035708115 0.018777251 -0.026187912 0.07676351 0.03727834 0.062372893 0.020462923 0.046250135
0.057493508 -0.09105638 -0.04571794 0.011271395 0.026061952 -0.047187913 0.05559829 -0.062685266
0.027803957 -0.078486055 0.08717184 -0.046196934 -0.019903138 0.0075506046 -0.093241826 -0.017264389
0.02243597 0.040557727 -0.054669835 0.044825986 -0.04686583 -0.07966627 0.044500515 0.0014163777
0.06023404 0.097824976 0.03146155 -0.0043647513 0.07230042 0.06709735 -0.08041853 0.060716644
0.0145275 -0.015506335 -0.038312063 0.08850029 0.053215444 0.0038365796 0.026738167 0.08249152
-0.007457994 -0.046926532 -0.023551285 0.030281022 -0.017781802 -0.08658322 -0.004321173 -0.09863804

l1.bias f4 [8]
00000000: 6982 8ebd e823 f33c 3c8f a13c acae 963c
00000010: 60d2 b0bd 5920 3dbd a84a f73c 1ac6 c33d
-0.069584675 0.029680207 0.01972162 0.018393837 -0.08633876 -0.046173427 0.030186966 0.09559269

l2.weight f4 [8, 8]
00000000: bbdb a03e 6847 d53d ad05 3abe b87d 46bd
00000010: 17c3 a3be 10cb 833c 98a7 7abd a62d 01be
00000020: 0068 883a 4b08 ab3e 7eb5 14be f020 a9be
00000030: ecc6 983d 1d80 a5be 4495 c63d b6df 053e
00000040: d3c7 b2be 2064 063e 8bb6 9dbe b286 353e
00000050: a9aa 9ebe 0ef9 203e 364f 723e f043 8f3c
00000060: c13b 9ebe 3e67 2d3e 60a5 de3d 0c02 a6bd
00000070: c904 a63e 6041 a5be 4ee4 9dbe 0058 26b9
00000080: 4b3e 69be 2245 acbe a68f 103e 0bda 24be
00000090: 0840 3d3d f72c 6abe 98ce 71bd 703b acbe
000000a0: 7bd3 37be a057 7dbe fc45 efbd b47b b9bd
000000b0: 6a85 6d3e c17a 62be 73e3 ae3e 92fc 9ebe
000000c0: 06bb 153e dd8b ad3e 0b73 93be 1e2d 743e
000000d0: 0066 15bd b138 9e3e 72e6 5f3e c2dd 4c3e
000000e0: 480b ddbd d467 ccbd 24ea 0b3e aea6 5e3e
000000f0: 208b 823d bbab 8e3e de84 4d3e 4d43 b03e
0.3141764 0.1041401 -0.18166228 -0.04845974 -0.3198478 0.016088039 -0.061194986 -0.1261507
0.0010406971 0.33404765 -0.14522359 -0.33032942 0.07459816 -0.32324305 0.09696439 0.1307362
-0.3491808 0.13124132 -0.30803332 0.17727163 -0.30989578 0.15720007 0.23663029 0.01748845
-0.30904964 0.16933915 0.108713865 -0.08105859 0.32425526 -0.3227644 -0.30838245 -0.00015863776
-0.22777669 -0.33646494 0.14117298 -0.16098802 0.046203643 -0.22868715 -0.059034914 -0.33639097
-0.17951767 -0.24740458 -0.1168327 -0.090567976 0.23195425 -0.2211714 0.34157905 -0.3105207
0.14622125 0.3389577 -0.28798708 0.23845336 -0.036474228 0.30902627 0.21865252 0.20006469
-0.10793167 -0.09980741 0.13663536 0.21743271 0.06374192 0.27865395 0.20070216 0.34426346

l2.bias f4 [8]
00000000: 05e9 32be cc07 bdbd c7d6 983e 40e8 10bd
00000010: 5a88 023e cc5a 903d b61a e4bd 4836 02bd
-0.17471702 -0.09230003 0.29851362 -0.03537774 0.12747326 0.07048568 -0.11137907 -0.031790048

l3.weight f4 [9, 8]
00000000: 6591 833e c8af 9fbd 395c 943e 5060 fbbc
00000010: a699 afbe d92d 18be 3e6d 6f3e ca2a 493e
00000020: 152b a93e bcac 11be 30dc 2d3d 514f 44be
00000030: c6bd 30be 030a b23e d7ad 5abe 60c1 14bd
00000040: 8079 6b3c 0e4e 40be 3911 5fbe a1e8 b0be
00000050: 3461 96be da5d 633e d4da 863d 9cf7 3bbe
00000060: 164c 1e3e de9f 353e c27e 14be a880 71bd
00000070: e880 4f3d ab71 81be ee6f 473e 5824 3b3d
00000080: a468 e43d b480 79be e0ac 1bbc 03c9 12be
00000090: 3ca2 afbe 29f1 adbe 0dfd 12be 23cc 9abe
000000a0: 2fc7 b23e 7f0b 903e c427 983d f497 2cbe
000000b0: bc26 d23d ca8c 1b3e babc 7c3e 3474 c23d
000000c0: 9d18 51be be8b 5e3e 10ea cdbd b070 fabd
000000d0: 28b7 733d 8036 9bbd d6ac 303e 867d 523e
000000e0: f3a7 ad3e fdd7 8e3e c8c0 84bd a923 9b3e
000000f0: a00c 45bc a83b fe3d 6b09 9b3e 9b3a 913e
00000100: f223 04be d665 11be c5d0 2dbe 8040 663b
00000110: 7924 84be 84fa 023e 800f cdbd fc26 c1bd
0.25696865 -0.077971995 0.2897661 -0.030685574 -0.34296912 -0.1486124 0.23381516 0.19645229
0.3304068 -0.14226049 0.042446315 -0.19170882 -0.17259893 0.34773263 -0.21355377 -0.03631723
0.01437223 -0.18779776 -0.21783914 -0.34552482 -0.29371035 0.2220377 0.06584707 -0.18356174
0.15458712 0.17736766 -0.1450148 -0.058960587 0.050660044 -0.25282034 0.19476292 0.045688957
0.11152771 -0.24365503 -0.009501666 -0.14334492 -0.34303463 -0.33973053 -0.14354344 -0.3023387
0.3491759 0.2813377 0.0742946 -0.1685484 0.10261294 0.15190426 0.24681368 0.0949482
-0.20419545 0.21732995 -0.100544095 -0.12228525 0.059500843 -0.075787544 0.17253432 0.20555696
0.33917198 0.2789916 -0.064820826 0.30300644 -0.012026936 0.12413722 0.30280623 0.28365025
-0.12904337 -0.14199004 -0.1697417 0.003513366 -0.25809076 0.12790877 -0.10012722 -0.09431264

l3.bias f4 [9]
00000000: 374d 40be e6ea 233e 437c 8cbe bec4 513e
00000010: f886 c93d 3288 303e 7032 043e 363e 263e
00000020: 3133 9d3e
-0.18779455 0.16007575 -0.27438554 0.20485207 0.09840196 0.17239454 0.12909865 0.16234669
0.30703118
